…
2024-04-13 09:19:24.159614: I tensorflow/core/common_runtime/gpu/gpu_device.cc:1929] Created device /job:localhost/replica:0/task:0/device:GPU:0 with 5491 MB memory:  -> device: 0, name: NVIDIA GeForce GTX 1060 6GB, pci bus id: 0000:01:00.0, compute capability: 6.1
Found 10000 files belonging to 200 classes.
Model: "model"
_________________________________________________________________
 Layer (type)                Output Shape              Param #   
=================================================================
 input_1 (InputLayer)        [(None, 224, 224, 3)]     0         
                                                                 
 conv2d (Conv2D)             (None, 111, 111, 24)      672       
                                                                 
 batch_normalization (Batch  (None, 111, 111, 24)      96        
 Normalization)                                                  
                                                                 
 activation (Activation)     (None, 111, 111, 24)      0         
                                                                 
 linear_bottleneck_block (L  (None, 56, 56, 24)        1368      
 inearBottleneckBlock)                                           
                                                                 
 linear_bottleneck_block_1   (None, 56, 56, 24)        1368      
 (LinearBottleneckBlock)                                         
                                                                 
 linear_bottleneck_block_2   (None, 56, 56, 24)        1368      
 (LinearBottleneckBlock)                                         
                                                                 
 linear_bottleneck_block_3   (None, 56, 56, 24)        1368      
 (LinearBottleneckBlock)                                         
                                                                 
 linear_bottleneck_block_4   (None, 28, 28, 96)        4464      
 (LinearBottleneckBlock)                                         
                                                                 
 linear_bottleneck_block_5   (None, 28, 28, 96)        12384     
 (LinearBottleneckBlock)                                         
                                                                 
 linear_bottleneck_block_6   (None, 28, 28, 96)        12384     
 (LinearBottleneckBlock)                                         
                                                                 
 linear_bottleneck_block_7   (None, 28, 28, 96)        12384     
 (LinearBottleneckBlock)                                         
                                                                 
 linear_bottleneck_block_8   (None, 14, 14, 168)       20664     
 (LinearBottleneckBlock)                                         
                                                                 
 linear_bottleneck_block_9   (None, 14, 14, 168)       33768     
 (LinearBottleneckBlock)                                         
                                                                 
 linear_bottleneck_block_10  (None, 14, 14, 168)       33768     
  (LinearBottleneckBlock)                                        
                                                                 
 linear_bottleneck_block_11  (None, 7, 7, 192)         38256     
  (LinearBottleneckBlock)                                        
                                                                 
 linear_bottleneck_block_12  (None, 7, 7, 384)         83712     
  (LinearBottleneckBlock)                                        
                                                                 
 global_average_pooling2d (  (None, 384)               0         
 GlobalAveragePooling2D)                                         
                                                                 
 dropout (Dropout)           (None, 384)               0         
                                                                 
 dense (Dense)               (None, 200)               77000     
                                                                 
=================================================================
Total params: 335024 (1.28 MB)
Trainable params: 326336 (1.24 MB)
Non-trainable params: 8688 (33.94 KB)
_________________________________________________________________
Epoch 1/100
2024-04-13 09:20:06.670771: I external/local_xla/xla/stream_executor/cuda/cuda_dnn.cc:454] Loaded cuDNN version 8904
…
782/782 - 232s - loss: 1.6531 - Top-1 Accuracy: 0.5727 - Top-5 Accuracy: 0.8251 - val_loss: 2.0898 - val_Top-1 Accuracy: 0.4943 - val_Top-5 Accuracy: 0.7503 - lr: 1.0000e-06 - 232s/epoch - 296ms/step
Epoch 42: early stopping
Found 100000 files belonging to 200 classes.
Found 10000 files belonging to 200 classes.
Model: "model_1"
_________________________________________________________________
 Layer (type)                Output Shape              Param #   
=================================================================
 input_2 (InputLayer)        [(None, 112, 112, 3)]     0         
                                                                 
 conv2d_14 (Conv2D)          (None, 55, 55, 24)        672       
                                                                 
 batch_normalization_40 (Ba  (None, 55, 55, 24)        96        
 tchNormalization)                                               
                                                                 
 activation_14 (Activation)  (None, 55, 55, 24)        0         
                                                                 
 linear_bottleneck_block_13  (None, 28, 28, 24)        1368      
  (LinearBottleneckBlock)                                        
                                                                 
 linear_bottleneck_block_14  (None, 28, 28, 24)        1368      
  (LinearBottleneckBlock)                                        
                                                                 
 linear_bottleneck_block_15  (None, 28, 28, 24)        1368      
  (LinearBottleneckBlock)                                        
                                                                 
 linear_bottleneck_block_16  (None, 28, 28, 24)        1368      
  (LinearBottleneckBlock)                                        
                                                                 
 linear_bottleneck_block_17  (None, 14, 14, 96)        4464      
  (LinearBottleneckBlock)                                        
                                                                 
 linear_bottleneck_block_18  (None, 14, 14, 96)        12384     
  (LinearBottleneckBlock)                                        
                                                                 
 linear_bottleneck_block_19  (None, 14, 14, 96)        12384     
  (LinearBottleneckBlock)                                        
                                                                 
 linear_bottleneck_block_20  (None, 14, 14, 96)        12384     
  (LinearBottleneckBlock)                                        
                                                                 
 linear_bottleneck_block_21  (None, 7, 7, 168)         20664     
  (LinearBottleneckBlock)                                        
                                                                 
 linear_bottleneck_block_22  (None, 7, 7, 168)         33768     
  (LinearBottleneckBlock)                                        
                                                                 
 linear_bottleneck_block_23  (None, 7, 7, 168)         33768     
  (LinearBottleneckBlock)                                        
                                                                 
 linear_bottleneck_block_24  (None, 4, 4, 192)         38256     
  (LinearBottleneckBlock)                                        
                                                                 
 linear_bottleneck_block_25  (None, 4, 4, 384)         83712     
  (LinearBottleneckBlock)                                        
                                                                 
 global_average_pooling2d_1  (None, 384)               0         
  (GlobalAveragePooling2D)                                       
                                                                 
 dropout_1 (Dropout)         (None, 384)               0         
                                                                 
 dense_1 (Dense)             (None, 200)               77000     
                                                                 
=================================================================
Total params: 335024 (1.28 MB)
Trainable params: 326336 (1.24 MB)
Non-trainable params: 8688 (33.94 KB)
_________________________________________________________________
Epoch 1/100
782/782 - 80s - loss: 3.7397 - Top-1 Accuracy: 0.2462 - Top-5 Accuracy: 0.5050 - val_loss: 3.3288 - val_Top-1 Accuracy: 0.2904 - val_Top-5 Accuracy: 0.5563 - lr: 0.0010 - 80s/epoch - 102ms/step
…
782/782 - 66s - loss: 2.3205 - Top-1 Accuracy: 0.4313 - Top-5 Accuracy: 0.7112 - val_loss: 2.4947 - val_Top-1 Accuracy: 0.4053 - val_Top-5 Accuracy: 0.6736 - lr: 0.0010 - 66s/epoch - 85ms/step
Found 100000 files belonging to 200 classes.
Found 10000 files belonging to 200 classes.
Model: "model_2"
_________________________________________________________________
 Layer (type)                Output Shape              Param #   
=================================================================
 input_3 (InputLayer)        [(None, 96, 96, 3)]       0         
                                                                 
 conv2d_28 (Conv2D)          (None, 47, 47, 24)        672       
                                                                 
 batch_normalization_80 (Ba  (None, 47, 47, 24)        96        
 tchNormalization)                                               
                                                                 
 activation_28 (Activation)  (None, 47, 47, 24)        0         
                                                                 
 linear_bottleneck_block_26  (None, 24, 24, 24)        1368      
  (LinearBottleneckBlock)                                        
                                                                 
 linear_bottleneck_block_27  (None, 24, 24, 24)        1368      
  (LinearBottleneckBlock)                                        
                                                                 
 linear_bottleneck_block_28  (None, 24, 24, 24)        1368      
  (LinearBottleneckBlock)                                        
                                                                 
 linear_bottleneck_block_29  (None, 24, 24, 24)        1368      
  (LinearBottleneckBlock)                                        
                                                                 
 linear_bottleneck_block_30  (None, 12, 12, 96)        4464      
  (LinearBottleneckBlock)                                        
                                                                 
 linear_bottleneck_block_31  (None, 12, 12, 96)        12384     
  (LinearBottleneckBlock)                                        
                                                                 
 linear_bottleneck_block_32  (None, 12, 12, 96)        12384     
  (LinearBottleneckBlock)                                        
                                                                 
 linear_bottleneck_block_33  (None, 12, 12, 96)        12384     
  (LinearBottleneckBlock)                                        
                                                                 
 linear_bottleneck_block_34  (None, 6, 6, 168)         20664     
  (LinearBottleneckBlock)                                        
                                                                 
 linear_bottleneck_block_35  (None, 6, 6, 168)         33768     
  (LinearBottleneckBlock)                                        
                                                                 
 linear_bottleneck_block_36  (None, 6, 6, 168)         33768     
  (LinearBottleneckBlock)                                        
                                                                 
 linear_bottleneck_block_37  (None, 3, 3, 192)         38256     
  (LinearBottleneckBlock)                                        
                                                                 
 linear_bottleneck_block_38  (None, 3, 3, 384)         83712     
  (LinearBottleneckBlock)                                        
                                                                 
 global_average_pooling2d_2  (None, 384)               0         
  (GlobalAveragePooling2D)                                       
                                                                 
 dropout_2 (Dropout)         (None, 384)               0         
                                                                 
 dense_2 (Dense)             (None, 200)               77000     
                                                                 
=================================================================
Total params: 335024 (1.28 MB)
Trainable params: 326336 (1.24 MB)
Non-trainable params: 8688 (33.94 KB)
_________________________________________________________________
Epoch 1/100
782/782 - 64s - loss: 2.9015 - Top-1 Accuracy: 0.3396 - Top-5 Accuracy: 0.6196 - val_loss: 2.8578 - val_Top-1 Accuracy: 0.3458 - val_Top-5 Accuracy: 0.6201 - lr: 0.0010 - 64s/epoch - 82ms/step
…
782/782 - 51s - loss: 2.3513 - Top-1 Accuracy: 0.4247 - Top-5 Accuracy: 0.7049 - val_loss: 2.5792 - val_Top-1 Accuracy: 0.3917 - val_Top-5 Accuracy: 0.6623 - lr: 1.0000e-06 - 51s/epoch - 66ms/step
Found 100000 files belonging to 200 classes.
Found 10000 files belonging to 200 classes.
Model: "model_3"
_________________________________________________________________
 Layer (type)                Output Shape              Param #   
=================================================================
 input_4 (InputLayer)        [(None, 64, 64, 3)]       0         
                                                                 
 conv2d_42 (Conv2D)          (None, 31, 31, 24)        672       
                                                                 
 batch_normalization_120 (B  (None, 31, 31, 24)        96        
 atchNormalization)                                              
                                                                 
 activation_42 (Activation)  (None, 31, 31, 24)        0         
                                                                 
 linear_bottleneck_block_39  (None, 16, 16, 24)        1368      
  (LinearBottleneckBlock)                                        
                                                                 
 linear_bottleneck_block_40  (None, 16, 16, 24)        1368      
  (LinearBottleneckBlock)                                        
                                                                 
 linear_bottleneck_block_41  (None, 16, 16, 24)        1368      
  (LinearBottleneckBlock)                                        
                                                                 
 linear_bottleneck_block_42  (None, 16, 16, 24)        1368      
  (LinearBottleneckBlock)                                        
                                                                 
 linear_bottleneck_block_43  (None, 8, 8, 96)          4464      
  (LinearBottleneckBlock)                                        
                                                                 
 linear_bottleneck_block_44  (None, 8, 8, 96)          12384     
  (LinearBottleneckBlock)                                        
                                                                 
 linear_bottleneck_block_45  (None, 8, 8, 96)          12384     
  (LinearBottleneckBlock)                                        
                                                                 
 linear_bottleneck_block_46  (None, 8, 8, 96)          12384     
  (LinearBottleneckBlock)                                        
                                                                 
 linear_bottleneck_block_47  (None, 4, 4, 168)         20664     
  (LinearBottleneckBlock)                                        
                                                                 
 linear_bottleneck_block_48  (None, 4, 4, 168)         33768     
  (LinearBottleneckBlock)                                        
                                                                 
 linear_bottleneck_block_49  (None, 4, 4, 168)         33768     
  (LinearBottleneckBlock)                                        
                                                                 
 linear_bottleneck_block_50  (None, 2, 2, 192)         38256     
  (LinearBottleneckBlock)                                        
                                                                 
 linear_bottleneck_block_51  (None, 2, 2, 384)         83712     
  (LinearBottleneckBlock)                                        
                                                                 
 global_average_pooling2d_3  (None, 384)               0         
  (GlobalAveragePooling2D)                                       
                                                                 
 dropout_3 (Dropout)         (None, 384)               0         
                                                                 
 dense_3 (Dense)             (None, 200)               77000     
                                                                 
=================================================================
Total params: 335024 (1.28 MB)
Trainable params: 326336 (1.24 MB)
Non-trainable params: 8688 (33.94 KB)
_________________________________________________________________
Epoch 1/100
782/782 - 46s - loss: 3.6996 - Top-1 Accuracy: 0.2183 - Top-5 Accuracy: 0.4697 - val_loss: 3.4405 - val_Top-1 Accuracy: 0.2412 - val_Top-5 Accuracy: 0.4971 - lr: 0.0010 - 46s/epoch - 59ms/step
…
782/782 - 34s - loss: 2.7525 - Top-1 Accuracy: 0.3476 - Top-5 Accuracy: 0.6289 - val_loss: 2.9132 - val_Top-1 Accuracy: 0.3228 - val_Top-5 Accuracy: 0.5989 - lr: 0.0010 - 34s/epoch - 43ms/step
Found 100000 files belonging to 200 classes.
Found 10000 files belonging to 200 classes.
Model: "model_4"
_________________________________________________________________
 Layer (type)                Output Shape              Param #   
=================================================================
 input_5 (InputLayer)        [(None, 48, 48, 3)]       0         
                                                                 
 conv2d_56 (Conv2D)          (None, 23, 23, 24)        672       
                                                                 
 batch_normalization_160 (B  (None, 23, 23, 24)        96        
 atchNormalization)                                              
                                                                 
 activation_56 (Activation)  (None, 23, 23, 24)        0         
                                                                 
 linear_bottleneck_block_52  (None, 12, 12, 24)        1368      
  (LinearBottleneckBlock)                                        
                                                                 
 linear_bottleneck_block_53  (None, 12, 12, 24)        1368      
  (LinearBottleneckBlock)                                        
                                                                 
 linear_bottleneck_block_54  (None, 12, 12, 24)        1368      
  (LinearBottleneckBlock)                                        
                                                                 
 linear_bottleneck_block_55  (None, 12, 12, 24)        1368      
  (LinearBottleneckBlock)                                        
                                                                 
 linear_bottleneck_block_56  (None, 6, 6, 96)          4464      
  (LinearBottleneckBlock)                                        
                                                                 
 linear_bottleneck_block_57  (None, 6, 6, 96)          12384     
  (LinearBottleneckBlock)                                        
                                                                 
 linear_bottleneck_block_58  (None, 6, 6, 96)          12384     
  (LinearBottleneckBlock)                                        
                                                                 
 linear_bottleneck_block_59  (None, 6, 6, 96)          12384     
  (LinearBottleneckBlock)                                        
                                                                 
 linear_bottleneck_block_60  (None, 3, 3, 168)         20664     
  (LinearBottleneckBlock)                                        
                                                                 
 linear_bottleneck_block_61  (None, 3, 3, 168)         33768     
  (LinearBottleneckBlock)                                        
                                                                 
 linear_bottleneck_block_62  (None, 3, 3, 168)         33768     
  (LinearBottleneckBlock)                                        
                                                                 
 linear_bottleneck_block_63  (None, 2, 2, 192)         38256     
  (LinearBottleneckBlock)                                        
                                                                 
 linear_bottleneck_block_64  (None, 2, 2, 384)         83712     
  (LinearBottleneckBlock)                                        
                                                                 
 global_average_pooling2d_4  (None, 384)               0         
  (GlobalAveragePooling2D)                                       
                                                                 
 dropout_4 (Dropout)         (None, 384)               0         
                                                                 
 dense_4 (Dense)             (None, 200)               77000     
                                                                 
=================================================================
Total params: 335024 (1.28 MB)
Trainable params: 326336 (1.24 MB)
Non-trainable params: 8688 (33.94 KB)
_________________________________________________________________
Epoch 1/100
782/782 - 40s - loss: 3.5468 - Top-1 Accuracy: 0.2163 - Top-5 Accuracy: 0.4678 - val_loss: 3.4513 - val_Top-1 Accuracy: 0.2273 - val_Top-5 Accuracy: 0.4848 - lr: 0.0010 - 40s/epoch - 51ms/step
…
