…
2024-05-02 20:38:00.552994: I tensorflow/core/common_runtime/gpu/gpu_device.cc:1929] Created device /job:localhost/replica:0/task:0/device:GPU:0 with 5484 MB memory:  -> device: 0, name: NVIDIA GeForce GTX 1060 6GB, pci bus id: 0000:01:00.0, compute capability: 6.1
Num GPUs Available:  1
Model: "model"
_________________________________________________________________
 Layer (type)                Output Shape              Param #   
=================================================================
 input_1 (InputLayer)        [(None, 112, 112, 3)]     0         
                                                                 
 conv2d (Conv2D)             (None, 55, 55, 24)        672       
                                                                 
 batch_normalization (Batch  (None, 55, 55, 24)        96        
 Normalization)                                                  
                                                                 
 activation (Activation)     (None, 55, 55, 24)        0         
                                                                 
 linear_bottleneck_block (L  (None, 28, 28, 24)        1368      
 inearBottleneckBlock)                                           
                                                                 
 linear_bottleneck_block_1   (None, 28, 28, 24)        1368      
 (LinearBottleneckBlock)                                         
                                                                 
 linear_bottleneck_block_2   (None, 28, 28, 24)        1368      
 (LinearBottleneckBlock)                                         
                                                                 
 linear_bottleneck_block_3   (None, 28, 28, 24)        1368      
 (LinearBottleneckBlock)                                         
                                                                 
 linear_bottleneck_block_4   (None, 14, 14, 96)        4464      
 (LinearBottleneckBlock)                                         
                                                                 
 linear_bottleneck_block_5   (None, 14, 14, 96)        12384     
 (LinearBottleneckBlock)                                         
                                                                 
 linear_bottleneck_block_6   (None, 14, 14, 96)        12384     
 (LinearBottleneckBlock)                                         
                                                                 
 linear_bottleneck_block_7   (None, 14, 14, 96)        12384     
 (LinearBottleneckBlock)                                         
                                                                 
 linear_bottleneck_block_8   (None, 7, 7, 168)         20664     
 (LinearBottleneckBlock)                                         
                                                                 
 linear_bottleneck_block_9   (None, 7, 7, 168)         33768     
 (LinearBottleneckBlock)                                         
                                                                 
 linear_bottleneck_block_10  (None, 7, 7, 168)         33768     
  (LinearBottleneckBlock)                                        
                                                                 
 linear_bottleneck_block_11  (None, 4, 4, 192)         38256     
  (LinearBottleneckBlock)                                        
                                                                 
 linear_bottleneck_block_12  (None, 4, 4, 384)         83712     
  (LinearBottleneckBlock)                                        
                                                                 
 global_average_pooling2d (  (None, 384)               0         
 GlobalAveragePooling2D)                                         
                                                                 
 dropout (Dropout)           (None, 384)               0         
                                                                 
 output_1 (Dense)            (None, 200)               77000     
                                                                 
 output_2 (TempatureSoftmax  (None, 200)               0         
 ActivationLayer)                                                
                                                                 
=================================================================
Total params: 335024 (1.28 MB)
Trainable params: 326336 (1.24 MB)
Non-trainable params: 8688 (33.94 KB)
_________________________________________________________________
Epoch 1/100
2024-05-02 20:41:05.429604: I external/local_xla/xla/stream_executor/cuda/cuda_dnn.cc:454] Loaded cuDNN version 8904
…
<keras.src.layers.regularization.dropout.Dropout object at 0x7f11c25ae530>
<keras.src.layers.core.dense.Dense object at 0x7f11c25ae890>
<tempature_softmax_activation_layer.TempatureSoftmaxActivationLayer object at 0x7f11c25aed10>
Model: "model_1"
_________________________________________________________________
 Layer (type)                Output Shape              Param #   
=================================================================
 input_2 (InputLayer)        [(None, 96, 96, 3)]       0         
                                                                 
 conv2d_14 (Conv2D)          (None, 47, 47, 24)        672       
                                                                 
 batch_normalization_40 (Ba  (None, 47, 47, 24)        96        
 tchNormalization)                                               
                                                                 
 activation_14 (Activation)  (None, 47, 47, 24)        0         
                                                                 
 linear_bottleneck_block_13  (None, 24, 24, 24)        1368      
  (LinearBottleneckBlock)                                        
                                                                 
 linear_bottleneck_block_14  (None, 24, 24, 24)        1368      
  (LinearBottleneckBlock)                                        
                                                                 
 linear_bottleneck_block_15  (None, 24, 24, 24)        1368      
  (LinearBottleneckBlock)                                        
                                                                 
 linear_bottleneck_block_16  (None, 24, 24, 24)        1368      
  (LinearBottleneckBlock)                                        
                                                                 
 linear_bottleneck_block_17  (None, 12, 12, 96)        4464      
  (LinearBottleneckBlock)                                        
                                                                 
 linear_bottleneck_block_18  (None, 12, 12, 96)        12384     
  (LinearBottleneckBlock)                                        
                                                                 
 linear_bottleneck_block_19  (None, 12, 12, 96)        12384     
  (LinearBottleneckBlock)                                        
                                                                 
 linear_bottleneck_block_20  (None, 12, 12, 96)        12384     
  (LinearBottleneckBlock)                                        
                                                                 
 linear_bottleneck_block_21  (None, 6, 6, 168)         20664     
  (LinearBottleneckBlock)                                        
                                                                 
 linear_bottleneck_block_22  (None, 6, 6, 168)         33768     
  (LinearBottleneckBlock)                                        
                                                                 
 linear_bottleneck_block_23  (None, 6, 6, 168)         33768     
  (LinearBottleneckBlock)                                        
                                                                 
 linear_bottleneck_block_24  (None, 3, 3, 192)         38256     
  (LinearBottleneckBlock)                                        
                                                                 
 linear_bottleneck_block_25  (None, 3, 3, 384)         83712     
  (LinearBottleneckBlock)                                        
                                                                 
 global_average_pooling2d_1  (None, 384)               0         
  (GlobalAveragePooling2D)                                       
                                                                 
 dropout_1 (Dropout)         (None, 384)               0         
                                                                 
 output_1 (Dense)            (None, 200)               77000     
                                                                 
 output_2 (TempatureSoftmax  (None, 200)               0         
 ActivationLayer)                                                
                                                                 
=================================================================
Total params: 335024 (1.28 MB)
Trainable params: 326336 (1.24 MB)
Non-trainable params: 8688 (33.94 KB)
_________________________________________________________________
Epoch 1/100
782/782 - 
…
<keras.src.layers.regularization.dropout.Dropout object at 0x7f11cffb46a0>
<keras.src.layers.core.dense.Dense object at 0x7f11cffb58d0>
<tempature_softmax_activation_layer.TempatureSoftmaxActivationLayer object at 0x7f11d2259060>
Model: "model_2"
_________________________________________________________________
 Layer (type)                Output Shape              Param #   
=================================================================
 input_3 (InputLayer)        [(None, 64, 64, 3)]       0         
                                                                 
 conv2d_28 (Conv2D)          (None, 31, 31, 24)        672       
                                                                 
 batch_normalization_80 (Ba  (None, 31, 31, 24)        96        
 tchNormalization)                                               
                                                                 
 activation_28 (Activation)  (None, 31, 31, 24)        0         
                                                                 
 linear_bottleneck_block_26  (None, 16, 16, 24)        1368      
  (LinearBottleneckBlock)                                        
                                                                 
 linear_bottleneck_block_27  (None, 16, 16, 24)        1368      
  (LinearBottleneckBlock)                                        
                                                                 
 linear_bottleneck_block_28  (None, 16, 16, 24)        1368      
  (LinearBottleneckBlock)                                        
                                                                 
 linear_bottleneck_block_29  (None, 16, 16, 24)        1368      
  (LinearBottleneckBlock)                                        
                                                                 
 linear_bottleneck_block_30  (None, 8, 8, 96)          4464      
  (LinearBottleneckBlock)                                        
                                                                 
 linear_bottleneck_block_31  (None, 8, 8, 96)          12384     
  (LinearBottleneckBlock)                                        
                                                                 
 linear_bottleneck_block_32  (None, 8, 8, 96)          12384     
  (LinearBottleneckBlock)                                        
                                                                 
 linear_bottleneck_block_33  (None, 8, 8, 96)          12384     
  (LinearBottleneckBlock)                                        
                                                                 
 linear_bottleneck_block_34  (None, 4, 4, 168)         20664     
  (LinearBottleneckBlock)                                        
                                                                 
 linear_bottleneck_block_35  (None, 4, 4, 168)         33768     
  (LinearBottleneckBlock)                                        
                                                                 
 linear_bottleneck_block_36  (None, 4, 4, 168)         33768     
  (LinearBottleneckBlock)                                        
                                                                 
 linear_bottleneck_block_37  (None, 2, 2, 192)         38256     
  (LinearBottleneckBlock)                                        
                                                                 
 linear_bottleneck_block_38  (None, 2, 2, 384)         83712     
  (LinearBottleneckBlock)                                        
                                                                 
 global_average_pooling2d_2  (None, 384)               0         
  (GlobalAveragePooling2D)                                       
                                                                 
 dropout_2 (Dropout)         (None, 384)               0         
                                                                 
 output_1 (Dense)            (None, 200)               77000     
                                                                 
 output_2 (TempatureSoftmax  (None, 200)               0         
 ActivationLayer)                                                
                                                                 
=================================================================
Total params: 335024 (1.28 MB)
Trainable params: 326336 (1.24 MB)
Non-trainable params: 8688 (33.94 KB)
_________________________________________________________________
Epoch 1/100
782/782 - 
…
<keras.src.layers.regularization.dropout.Dropout object at 0x7f120c237cd0>
<keras.src.layers.core.dense.Dense object at 0x7f120c234a30>
<tempature_softmax_activation_layer.TempatureSoftmaxActivationLayer object at 0x7f120c234b50>
Model: "model_3"
_________________________________________________________________
 Layer (type)                Output Shape              Param #   
=================================================================
 input_4 (InputLayer)        [(None, 48, 48, 3)]       0         
                                                                 
 conv2d_42 (Conv2D)          (None, 23, 23, 24)        672       
                                                                 
 batch_normalization_120 (B  (None, 23, 23, 24)        96        
 atchNormalization)                                              
                                                                 
 activation_42 (Activation)  (None, 23, 23, 24)        0         
                                                                 
 linear_bottleneck_block_39  (None, 12, 12, 24)        1368      
  (LinearBottleneckBlock)                                        
                                                                 
 linear_bottleneck_block_40  (None, 12, 12, 24)        1368      
  (LinearBottleneckBlock)                                        
                                                                 
 linear_bottleneck_block_41  (None, 12, 12, 24)        1368      
  (LinearBottleneckBlock)                                        
                                                                 
 linear_bottleneck_block_42  (None, 12, 12, 24)        1368      
  (LinearBottleneckBlock)                                        
                                                                 
 linear_bottleneck_block_43  (None, 6, 6, 96)          4464      
  (LinearBottleneckBlock)                                        
                                                                 
 linear_bottleneck_block_44  (None, 6, 6, 96)          12384     
  (LinearBottleneckBlock)                                        
                                                                 
 linear_bottleneck_block_45  (None, 6, 6, 96)          12384     
  (LinearBottleneckBlock)                                        
                                                                 
 linear_bottleneck_block_46  (None, 6, 6, 96)          12384     
  (LinearBottleneckBlock)                                        
                                                                 
 linear_bottleneck_block_47  (None, 3, 3, 168)         20664     
  (LinearBottleneckBlock)                                        
                                                                 
 linear_bottleneck_block_48  (None, 3, 3, 168)         33768     
  (LinearBottleneckBlock)                                        
                                                                 
 linear_bottleneck_block_49  (None, 3, 3, 168)         33768     
  (LinearBottleneckBlock)                                        
                                                                 
 linear_bottleneck_block_50  (None, 2, 2, 192)         38256     
  (LinearBottleneckBlock)                                        
                                                                 
 linear_bottleneck_block_51  (None, 2, 2, 384)         83712     
  (LinearBottleneckBlock)                                        
                                                                 
 global_average_pooling2d_3  (None, 384)               0         
  (GlobalAveragePooling2D)                                       
                                                                 
 dropout_3 (Dropout)         (None, 384)               0         
                                                                 
 output_1 (Dense)            (None, 200)               77000     
                                                                 
 output_2 (TempatureSoftmax  (None, 200)               0         
 ActivationLayer)                                                
                                                                 
=================================================================
Total params: 335024 (1.28 MB)
Trainable params: 326336 (1.24 MB)
Non-trainable params: 8688 (33.94 KB)
_________________________________________________________________
Epoch 1/100
782/782 - 
…
