…
2024-04-14 13:02:38.951596: I tensorflow/core/common_runtime/gpu/gpu_device.cc:1929] Created device /job:localhost/replica:0/task:0/device:GPU:0 with 5484 MB memory:  -> device: 0, name: NVIDIA GeForce GTX 1060 6GB, pci bus id: 0000:01:00.0, compute capability: 6.1
Found 10000 files belonging to 200 classes.
Model: "model"
_________________________________________________________________
 Layer (type)                Output Shape              Param #   
=================================================================
 input_1 (InputLayer)        [(None, 224, 224, 3)]     0         
                                                                 
 conv2d (Conv2D)             (None, 111, 111, 24)      672       
                                                                 
 batch_normalization (Batch  (None, 111, 111, 24)      96        
 Normalization)                                                  
                                                                 
 activation (Activation)     (None, 111, 111, 24)      0         
                                                                 
 linear_bottleneck_block (L  (None, 56, 56, 24)        1368      
 inearBottleneckBlock)                                           
                                                                 
 linear_bottleneck_block_1   (None, 56, 56, 24)        1368      
 (LinearBottleneckBlock)                                         
                                                                 
 linear_bottleneck_block_2   (None, 56, 56, 24)        1368      
 (LinearBottleneckBlock)                                         
                                                                 
 linear_bottleneck_block_3   (None, 56, 56, 24)        1368      
 (LinearBottleneckBlock)                                         
                                                                 
 linear_bottleneck_block_4   (None, 28, 28, 96)        4464      
 (LinearBottleneckBlock)                                         
                                                                 
 linear_bottleneck_block_5   (None, 28, 28, 96)        12384     
 (LinearBottleneckBlock)                                         
                                                                 
 linear_bottleneck_block_6   (None, 28, 28, 96)        12384     
 (LinearBottleneckBlock)                                         
                                                                 
 linear_bottleneck_block_7   (None, 28, 28, 96)        12384     
 (LinearBottleneckBlock)                                         
                                                                 
 linear_bottleneck_block_8   (None, 14, 14, 168)       20664     
 (LinearBottleneckBlock)                                         
                                                                 
 linear_bottleneck_block_9   (None, 14, 14, 168)       33768     
 (LinearBottleneckBlock)                                         
                                                                 
 linear_bottleneck_block_10  (None, 14, 14, 168)       33768     
  (LinearBottleneckBlock)                                        
                                                                 
 linear_bottleneck_block_11  (None, 7, 7, 192)         38256     
  (LinearBottleneckBlock)                                        
                                                                 
 linear_bottleneck_block_12  (None, 7, 7, 384)         83712     
  (LinearBottleneckBlock)                                        
                                                                 
 global_average_pooling2d (  (None, 384)               0         
 GlobalAveragePooling2D)                                         
                                                                 
 dropout (Dropout)           (None, 384)               0         
                                                                 
 dense (Dense)               (None, 200)               77000     
                                                                 
=================================================================
Total params: 335024 (1.28 MB)
Trainable params: 326336 (1.24 MB)
Non-trainable params: 8688 (33.94 KB)
_________________________________________________________________
Epoch 1/100
2024-04-14 13:03:23.588722: I external/local_xla/xla/stream_executor/cuda/cuda_dnn.cc:454] Loaded cuDNN version 8904
…
782/782 - 233s - loss: 1.7568 - Top-1 Accuracy: 0.5490 - Top-5 Accuracy: 0.8087 - val_loss: 2.1372 - val_Top-1 Accuracy: 0.4835 - val_Top-5 Accuracy: 0.7491 - lr: 1.0000e-06 - 233s/epoch - 298ms/step
Epoch 44: early stopping
Found 100000 files belonging to 200 classes.
Found 10000 files belonging to 200 classes.
Model: "model_1"
_________________________________________________________________
 Layer (type)                Output Shape              Param #   
=================================================================
 input_2 (InputLayer)        [(None, 112, 112, 3)]     0         
                                                                 
 conv2d_14 (Conv2D)          (None, 55, 55, 24)        672       
                                                                 
 batch_normalization_40 (Ba  (None, 55, 55, 24)        96        
 tchNormalization)                                               
                                                                 
 activation_14 (Activation)  (None, 55, 55, 24)        0         
                                                                 
 linear_bottleneck_block_13  (None, 28, 28, 24)        1368      
  (LinearBottleneckBlock)                                        
                                                                 
 linear_bottleneck_block_14  (None, 28, 28, 24)        1368      
  (LinearBottleneckBlock)                                        
                                                                 
 linear_bottleneck_block_15  (None, 28, 28, 24)        1368      
  (LinearBottleneckBlock)                                        
                                                                 
 linear_bottleneck_block_16  (None, 28, 28, 24)        1368      
  (LinearBottleneckBlock)                                        
                                                                 
 linear_bottleneck_block_17  (None, 14, 14, 96)        4464      
  (LinearBottleneckBlock)                                        
                                                                 
 linear_bottleneck_block_18  (None, 14, 14, 96)        12384     
  (LinearBottleneckBlock)                                        
                                                                 
 linear_bottleneck_block_19  (None, 14, 14, 96)        12384     
  (LinearBottleneckBlock)                                        
                                                                 
 linear_bottleneck_block_20  (None, 14, 14, 96)        12384     
  (LinearBottleneckBlock)                                        
                                                                 
 linear_bottleneck_block_21  (None, 7, 7, 168)         20664     
  (LinearBottleneckBlock)                                        
                                                                 
 linear_bottleneck_block_22  (None, 7, 7, 168)         33768     
  (LinearBottleneckBlock)                                        
                                                                 
 linear_bottleneck_block_23  (None, 7, 7, 168)         33768     
  (LinearBottleneckBlock)                                        
                                                                 
 linear_bottleneck_block_24  (None, 4, 4, 192)         38256     
  (LinearBottleneckBlock)                                        
                                                                 
 linear_bottleneck_block_25  (None, 4, 4, 384)         83712     
  (LinearBottleneckBlock)                                        
                                                                 
 global_average_pooling2d_1  (None, 384)               0         
  (GlobalAveragePooling2D)                                       
                                                                 
 dropout_1 (Dropout)         (None, 384)               0         
                                                                 
 dense_1 (Dense)             (None, 200)               77000     
                                                                 
=================================================================
Total params: 335024 (1.28 MB)
Trainable params: 326336 (1.24 MB)
Non-trainable params: 8688 (33.94 KB)
_________________________________________________________________
Epoch 1/100
782/782 - 79s - loss: 3.0777 - Top-1 Accuracy: 0.2906 - Top-5 Accuracy: 0.5651 - val_loss: 3.6703 - val_Top-1 Accuracy: 0.2182 - val_Top-5 Accuracy: 0.4614 - lr: 0.1000 - 79s/epoch - 101ms/step
…
782/782 - 67s - loss: 1.9273 - Top-1 Accuracy: 0.5116 - Top-5 Accuracy: 0.7812 - val_loss: 2.3753 - val_Top-1 Accuracy: 0.4383 - val_Top-5 Accuracy: 0.7067 - lr: 1.0000e-06 - 67s/epoch - 85ms/step
Epoch 35: early stopping
Found 100000 files belonging to 200 classes.
Found 10000 files belonging to 200 classes.
Model: "model_2"
_________________________________________________________________
 Layer (type)                Output Shape              Param #   
=================================================================
 input_3 (InputLayer)        [(None, 96, 96, 3)]       0         
                                                                 
 conv2d_28 (Conv2D)          (None, 47, 47, 24)        672       
                                                                 
 batch_normalization_80 (Ba  (None, 47, 47, 24)        96        
 tchNormalization)                                               
                                                                 
 activation_28 (Activation)  (None, 47, 47, 24)        0         
                                                                 
 linear_bottleneck_block_26  (None, 24, 24, 24)        1368      
  (LinearBottleneckBlock)                                        
                                                                 
 linear_bottleneck_block_27  (None, 24, 24, 24)        1368      
  (LinearBottleneckBlock)                                        
                                                                 
 linear_bottleneck_block_28  (None, 24, 24, 24)        1368      
  (LinearBottleneckBlock)                                        
                                                                 
 linear_bottleneck_block_29  (None, 24, 24, 24)        1368      
  (LinearBottleneckBlock)                                        
                                                                 
 linear_bottleneck_block_30  (None, 12, 12, 96)        4464      
  (LinearBottleneckBlock)                                        
                                                                 
 linear_bottleneck_block_31  (None, 12, 12, 96)        12384     
  (LinearBottleneckBlock)                                        
                                                                 
 linear_bottleneck_block_32  (None, 12, 12, 96)        12384     
  (LinearBottleneckBlock)                                        
                                                                 
 linear_bottleneck_block_33  (None, 12, 12, 96)        12384     
  (LinearBottleneckBlock)                                        
                                                                 
 linear_bottleneck_block_34  (None, 6, 6, 168)         20664     
  (LinearBottleneckBlock)                                        
                                                                 
 linear_bottleneck_block_35  (None, 6, 6, 168)         33768     
  (LinearBottleneckBlock)                                        
                                                                 
 linear_bottleneck_block_36  (None, 6, 6, 168)         33768     
  (LinearBottleneckBlock)                                        
                                                                 
 linear_bottleneck_block_37  (None, 3, 3, 192)         38256     
  (LinearBottleneckBlock)                                        
                                                                 
 linear_bottleneck_block_38  (None, 3, 3, 384)         83712     
  (LinearBottleneckBlock)                                        
                                                                 
 global_average_pooling2d_2  (None, 384)               0         
  (GlobalAveragePooling2D)                                       
                                                                 
 dropout_2 (Dropout)         (None, 384)               0         
                                                                 
 dense_2 (Dense)             (None, 200)               77000     
                                                                 
=================================================================
Total params: 335024 (1.28 MB)
Trainable params: 326336 (1.24 MB)
Non-trainable params: 8688 (33.94 KB)
_________________________________________________________________
Epoch 1/100
782/782 - 64s - loss: 2.6700 - Top-1 Accuracy: 0.3614 - Top-5 Accuracy: 0.6469 - val_loss: 3.2715 - val_Top-1 Accuracy: 0.2788 - val_Top-5 Accuracy: 0.5324 - lr: 0.1000 - 64s/epoch - 82ms/step
…
782/782 - 52s - loss: 1.8579 - Top-1 Accuracy: 0.5260 - Top-5 Accuracy: 0.7912 - val_loss: 2.3947 - val_Top-1 Accuracy: 0.4356 - val_Top-5 Accuracy: 0.7035 - lr: 1.0000e-06 - 52s/epoch - 66ms/step
Epoch 31: early stopping
Found 100000 files belonging to 200 classes.
Found 10000 files belonging to 200 classes.
Model: "model_3"
_________________________________________________________________
 Layer (type)                Output Shape              Param #   
=================================================================
 input_4 (InputLayer)        [(None, 64, 64, 3)]       0         
                                                                 
 conv2d_42 (Conv2D)          (None, 31, 31, 24)        672       
                                                                 
 batch_normalization_120 (B  (None, 31, 31, 24)        96        
 atchNormalization)                                              
                                                                 
 activation_42 (Activation)  (None, 31, 31, 24)        0         
                                                                 
 linear_bottleneck_block_39  (None, 16, 16, 24)        1368      
  (LinearBottleneckBlock)                                        
                                                                 
 linear_bottleneck_block_40  (None, 16, 16, 24)        1368      
  (LinearBottleneckBlock)                                        
                                                                 
 linear_bottleneck_block_41  (None, 16, 16, 24)        1368      
  (LinearBottleneckBlock)                                        
                                                                 
 linear_bottleneck_block_42  (None, 16, 16, 24)        1368      
  (LinearBottleneckBlock)                                        
                                                                 
 linear_bottleneck_block_43  (None, 8, 8, 96)          4464      
  (LinearBottleneckBlock)                                        
                                                                 
 linear_bottleneck_block_44  (None, 8, 8, 96)          12384     
  (LinearBottleneckBlock)                                        
                                                                 
 linear_bottleneck_block_45  (None, 8, 8, 96)          12384     
  (LinearBottleneckBlock)                                        
                                                                 
 linear_bottleneck_block_46  (None, 8, 8, 96)          12384     
  (LinearBottleneckBlock)                                        
                                                                 
 linear_bottleneck_block_47  (None, 4, 4, 168)         20664     
  (LinearBottleneckBlock)                                        
                                                                 
 linear_bottleneck_block_48  (None, 4, 4, 168)         33768     
  (LinearBottleneckBlock)                                        
                                                                 
 linear_bottleneck_block_49  (None, 4, 4, 168)         33768     
  (LinearBottleneckBlock)                                        
                                                                 
 linear_bottleneck_block_50  (None, 2, 2, 192)         38256     
  (LinearBottleneckBlock)                                        
                                                                 
 linear_bottleneck_block_51  (None, 2, 2, 384)         83712     
  (LinearBottleneckBlock)                                        
                                                                 
 global_average_pooling2d_3  (None, 384)               0         
  (GlobalAveragePooling2D)                                       
                                                                 
 dropout_3 (Dropout)         (None, 384)               0         
                                                                 
 dense_3 (Dense)             (None, 200)               77000     
                                                                 
=================================================================
Total params: 335024 (1.28 MB)
Trainable params: 326336 (1.24 MB)
Non-trainable params: 8688 (33.94 KB)
_________________________________________________________________
Epoch 1/100
782/782 - 47s - loss: 3.0656 - Top-1 Accuracy: 0.2905 - Top-5 Accuracy: 0.5666 - val_loss: 3.7510 - val_Top-1 Accuracy: 0.1963 - val_Top-5 Accuracy: 0.4339 - lr: 0.1000 - 47s/epoch - 61ms/step
…
782/782 - 35s - loss: 2.0088 - Top-1 Accuracy: 0.4935 - Top-5 Accuracy: 0.7657 - val_loss: 2.4950 - val_Top-1 Accuracy: 0.4135 - val_Top-5 Accuracy: 0.6822 - lr: 1.0000e-06 - 35s/epoch - 44ms/step
Epoch 33: early stopping
Found 100000 files belonging to 200 classes.
Found 10000 files belonging to 200 classes.
Model: "model_4"
_________________________________________________________________
 Layer (type)                Output Shape              Param #   
=================================================================
 input_5 (InputLayer)        [(None, 48, 48, 3)]       0         
                                                                 
 conv2d_56 (Conv2D)          (None, 23, 23, 24)        672       
                                                                 
 batch_normalization_160 (B  (None, 23, 23, 24)        96        
 atchNormalization)                                              
                                                                 
 activation_56 (Activation)  (None, 23, 23, 24)        0         
                                                                 
 linear_bottleneck_block_52  (None, 12, 12, 24)        1368      
  (LinearBottleneckBlock)                                        
                                                                 
 linear_bottleneck_block_53  (None, 12, 12, 24)        1368      
  (LinearBottleneckBlock)                                        
                                                                 
 linear_bottleneck_block_54  (None, 12, 12, 24)        1368      
  (LinearBottleneckBlock)                                        
                                                                 
 linear_bottleneck_block_55  (None, 12, 12, 24)        1368      
  (LinearBottleneckBlock)                                        
                                                                 
 linear_bottleneck_block_56  (None, 6, 6, 96)          4464      
  (LinearBottleneckBlock)                                        
                                                                 
 linear_bottleneck_block_57  (None, 6, 6, 96)          12384     
  (LinearBottleneckBlock)                                        
                                                                 
 linear_bottleneck_block_58  (None, 6, 6, 96)          12384     
  (LinearBottleneckBlock)                                        
                                                                 
 linear_bottleneck_block_59  (None, 6, 6, 96)          12384     
  (LinearBottleneckBlock)                                        
                                                                 
 linear_bottleneck_block_60  (None, 3, 3, 168)         20664     
  (LinearBottleneckBlock)                                        
                                                                 
 linear_bottleneck_block_61  (None, 3, 3, 168)         33768     
  (LinearBottleneckBlock)                                        
                                                                 
 linear_bottleneck_block_62  (None, 3, 3, 168)         33768     
  (LinearBottleneckBlock)                                        
                                                                 
 linear_bottleneck_block_63  (None, 2, 2, 192)         38256     
  (LinearBottleneckBlock)                                        
                                                                 
 linear_bottleneck_block_64  (None, 2, 2, 384)         83712     
  (LinearBottleneckBlock)                                        
                                                                 
 global_average_pooling2d_4  (None, 384)               0         
  (GlobalAveragePooling2D)                                       
                                                                 
 dropout_4 (Dropout)         (None, 384)               0         
                                                                 
 dense_4 (Dense)             (None, 200)               77000     
                                                                 
=================================================================
Total params: 335024 (1.28 MB)
Trainable params: 326336 (1.24 MB)
Non-trainable params: 8688 (33.94 KB)
_________________________________________________________________
Epoch 1/100
782/782 - 41s - loss: 2.9239 - Top-1 Accuracy: 0.3157 - Top-5 Accuracy: 0.5949 - val_loss: 3.0833 - val_Top-1 Accuracy: 0.2903 - val_Top-5 Accuracy: 0.5588 - lr: 0.1000 - 41s/epoch - 52ms/step
…
