…
2024-04-10 14:20:33.708269: I tensorflow/core/common_runtime/gpu/gpu_device.cc:1929] Created device /job:localhost/replica:0/task:0/device:GPU:0 with 5491 MB memory:  -> device: 0, name: NVIDIA GeForce GTX 1060 6GB, pci bus id: 0000:01:00.0, compute capability: 6.1
Number of Training Classes: 200
Found 10000 files belonging to 200 classes.
Number of Validation Classes: 200
Model: "model"
_________________________________________________________________
 Layer (type)                Output Shape              Param #   
=================================================================
 input_1 (InputLayer)        [(None, 224, 224, 3)]     0         
                                                                 
 conv2d (Conv2D)             (None, 111, 111, 24)      672       
                                                                 
 batch_normalization (Batch  (None, 111, 111, 24)      96        
 Normalization)                                                  
                                                                 
 activation (Activation)     (None, 111, 111, 24)      0         
                                                                 
 linear_bottleneck_block (L  (None, 56, 56, 24)        1368      
 inearBottleneckBlock)                                           
                                                                 
 linear_bottleneck_block_1   (None, 56, 56, 24)        1368      
 (LinearBottleneckBlock)                                         
                                                                 
 linear_bottleneck_block_2   (None, 56, 56, 24)        1368      
 (LinearBottleneckBlock)                                         
                                                                 
 linear_bottleneck_block_3   (None, 56, 56, 24)        1368      
 (LinearBottleneckBlock)                                         
                                                                 
 linear_bottleneck_block_4   (None, 28, 28, 96)        4464      
 (LinearBottleneckBlock)                                         
                                                                 
 linear_bottleneck_block_5   (None, 28, 28, 96)        12384     
 (LinearBottleneckBlock)                                         
                                                                 
 linear_bottleneck_block_6   (None, 28, 28, 96)        12384     
 (LinearBottleneckBlock)                                         
                                                                 
 linear_bottleneck_block_7   (None, 28, 28, 96)        12384     
 (LinearBottleneckBlock)                                         
                                                                 
 dense_linear_bottleneck_bl  (None, 14, 14, 168)       37632     
 ock (DenseLinearBottleneck                                      
 Block)                                                          
                                                                 
 dense_linear_bottleneck_bl  (None, 14, 14, 168)       33768     
 ock_1 (DenseLinearBottlene                                      
 ckBlock)                                                        
                                                                 
 dense_linear_bottleneck_bl  (None, 14, 14, 168)       33768     
 ock_2 (DenseLinearBottlene                                      
 ckBlock)                                                        
                                                                 
 dense_linear_bottleneck_bl  (None, 7, 7, 192)         71472     
 ock_3 (DenseLinearBottlene                                      
 ckBlock)                                                        
                                                                 
 dense_linear_bottleneck_bl  (None, 7, 7, 192)         43200     
 ock_4 (DenseLinearBottlene                                      
 ckBlock)                                                        
                                                                 
 dense_linear_bottleneck_bl  (None, 7, 7, 384)         159360    
 ock_5 (DenseLinearBottlene                                      
 ckBlock)                                                        
                                                                 
 global_average_pooling2d (  (None, 384)               0         
 GlobalAveragePooling2D)                                         
                                                                 
 dropout (Dropout)           (None, 384)               0         
                                                                 
 dense (Dense)               (None, 200)               77000     
                                                                 
=================================================================
Total params: 504056 (1.92 MB)
Trainable params: 492728 (1.88 MB)
Non-trainable params: 11328 (44.25 KB)
_________________________________________________________________
Epoch 1/1000
2024-04-10 14:21:18.885652: I external/local_xla/xla/stream_executor/cuda/cuda_dnn.cc:454] Loaded cuDNN version 8904
…
